backend: tensorflow
class_name: Sequential
config:
  layers:
  - class_name: ZeroPadding2D
    config:
      batch_input_shape: !!python/tuple
      - null
      - 7
      - 19
      - 19
      data_format: channels_first
      dtype: float32
      name: zero_padding2d_1
      padding: !!python/tuple
      - !!python/tuple
        - 3
        - 3
      - !!python/tuple
        - 3
        - 3
      trainable: true
  - class_name: Conv2D
    config:
      activation: linear
      activity_regularizer: null
      bias_constraint: null
      bias_initializer:
        class_name: Zeros
        config: {}
      bias_regularizer: null
      data_format: channels_first
      dilation_rate: &id001 !!python/tuple
      - 1
      - 1
      dtype: float32
      filters: 64
      kernel_constraint: null
      kernel_initializer:
        class_name: VarianceScaling
        config:
          distribution: uniform
          mode: fan_avg
          scale: 1.0
          seed: null
      kernel_regularizer: null
      kernel_size: !!python/tuple
      - 7
      - 7
      name: conv2d_1
      padding: valid
      strides: &id002 !!python/tuple
      - 1
      - 1
      trainable: true
      use_bias: true
  - class_name: Activation
    config:
      activation: relu
      dtype: float32
      name: activation_1
      trainable: true
  - class_name: ZeroPadding2D
    config:
      data_format: channels_first
      dtype: float32
      name: zero_padding2d_2
      padding: !!python/tuple
      - !!python/tuple
        - 2
        - 2
      - !!python/tuple
        - 2
        - 2
      trainable: true
  - class_name: Conv2D
    config:
      activation: linear
      activity_regularizer: null
      bias_constraint: null
      bias_initializer:
        class_name: Zeros
        config: {}
      bias_regularizer: null
      data_format: channels_first
      dilation_rate: *id001
      dtype: float32
      filters: 64
      kernel_constraint: null
      kernel_initializer:
        class_name: VarianceScaling
        config:
          distribution: uniform
          mode: fan_avg
          scale: 1.0
          seed: null
      kernel_regularizer: null
      kernel_size: !!python/tuple
      - 5
      - 5
      name: conv2d_2
      padding: valid
      strides: *id002
      trainable: true
      use_bias: true
  - class_name: Activation
    config:
      activation: relu
      dtype: float32
      name: activation_2
      trainable: true
  - class_name: ZeroPadding2D
    config:
      data_format: channels_first
      dtype: float32
      name: zero_padding2d_3
      padding: !!python/tuple
      - !!python/tuple
        - 2
        - 2
      - !!python/tuple
        - 2
        - 2
      trainable: true
  - class_name: Conv2D
    config:
      activation: linear
      activity_regularizer: null
      bias_constraint: null
      bias_initializer:
        class_name: Zeros
        config: {}
      bias_regularizer: null
      data_format: channels_first
      dilation_rate: *id001
      dtype: float32
      filters: 64
      kernel_constraint: null
      kernel_initializer:
        class_name: VarianceScaling
        config:
          distribution: uniform
          mode: fan_avg
          scale: 1.0
          seed: null
      kernel_regularizer: null
      kernel_size: !!python/tuple
      - 5
      - 5
      name: conv2d_3
      padding: valid
      strides: *id002
      trainable: true
      use_bias: true
  - class_name: Activation
    config:
      activation: relu
      dtype: float32
      name: activation_3
      trainable: true
  - class_name: ZeroPadding2D
    config:
      data_format: channels_first
      dtype: float32
      name: zero_padding2d_4
      padding: !!python/tuple
      - !!python/tuple
        - 2
        - 2
      - !!python/tuple
        - 2
        - 2
      trainable: true
  - class_name: Conv2D
    config:
      activation: linear
      activity_regularizer: null
      bias_constraint: null
      bias_initializer:
        class_name: Zeros
        config: {}
      bias_regularizer: null
      data_format: channels_first
      dilation_rate: *id001
      dtype: float32
      filters: 48
      kernel_constraint: null
      kernel_initializer:
        class_name: VarianceScaling
        config:
          distribution: uniform
          mode: fan_avg
          scale: 1.0
          seed: null
      kernel_regularizer: null
      kernel_size: !!python/tuple
      - 5
      - 5
      name: conv2d_4
      padding: valid
      strides: *id002
      trainable: true
      use_bias: true
  - class_name: Activation
    config:
      activation: relu
      dtype: float32
      name: activation_4
      trainable: true
  - class_name: ZeroPadding2D
    config:
      data_format: channels_first
      dtype: float32
      name: zero_padding2d_5
      padding: !!python/tuple
      - !!python/tuple
        - 2
        - 2
      - !!python/tuple
        - 2
        - 2
      trainable: true
  - class_name: Conv2D
    config:
      activation: linear
      activity_regularizer: null
      bias_constraint: null
      bias_initializer:
        class_name: Zeros
        config: {}
      bias_regularizer: null
      data_format: channels_first
      dilation_rate: *id001
      dtype: float32
      filters: 48
      kernel_constraint: null
      kernel_initializer:
        class_name: VarianceScaling
        config:
          distribution: uniform
          mode: fan_avg
          scale: 1.0
          seed: null
      kernel_regularizer: null
      kernel_size: !!python/tuple
      - 5
      - 5
      name: conv2d_5
      padding: valid
      strides: *id002
      trainable: true
      use_bias: true
  - class_name: Activation
    config:
      activation: relu
      dtype: float32
      name: activation_5
      trainable: true
  - class_name: ZeroPadding2D
    config:
      data_format: channels_first
      dtype: float32
      name: zero_padding2d_6
      padding: !!python/tuple
      - !!python/tuple
        - 2
        - 2
      - !!python/tuple
        - 2
        - 2
      trainable: true
  - class_name: Conv2D
    config:
      activation: linear
      activity_regularizer: null
      bias_constraint: null
      bias_initializer:
        class_name: Zeros
        config: {}
      bias_regularizer: null
      data_format: channels_first
      dilation_rate: *id001
      dtype: float32
      filters: 32
      kernel_constraint: null
      kernel_initializer:
        class_name: VarianceScaling
        config:
          distribution: uniform
          mode: fan_avg
          scale: 1.0
          seed: null
      kernel_regularizer: null
      kernel_size: !!python/tuple
      - 5
      - 5
      name: conv2d_6
      padding: valid
      strides: *id002
      trainable: true
      use_bias: true
  - class_name: Activation
    config:
      activation: relu
      dtype: float32
      name: activation_6
      trainable: true
  - class_name: ZeroPadding2D
    config:
      data_format: channels_first
      dtype: float32
      name: zero_padding2d_7
      padding: !!python/tuple
      - !!python/tuple
        - 2
        - 2
      - !!python/tuple
        - 2
        - 2
      trainable: true
  - class_name: Conv2D
    config:
      activation: linear
      activity_regularizer: null
      bias_constraint: null
      bias_initializer:
        class_name: Zeros
        config: {}
      bias_regularizer: null
      data_format: channels_first
      dilation_rate: *id001
      dtype: float32
      filters: 32
      kernel_constraint: null
      kernel_initializer:
        class_name: VarianceScaling
        config:
          distribution: uniform
          mode: fan_avg
          scale: 1.0
          seed: null
      kernel_regularizer: null
      kernel_size: !!python/tuple
      - 5
      - 5
      name: conv2d_7
      padding: valid
      strides: *id002
      trainable: true
      use_bias: true
  - class_name: Activation
    config:
      activation: relu
      dtype: float32
      name: activation_7
      trainable: true
  - class_name: Flatten
    config:
      data_format: channels_last
      dtype: float32
      name: flatten_1
      trainable: true
  - class_name: Dense
    config:
      activation: linear
      activity_regularizer: null
      bias_constraint: null
      bias_initializer:
        class_name: Zeros
        config: {}
      bias_regularizer: null
      dtype: float32
      kernel_constraint: null
      kernel_initializer:
        class_name: VarianceScaling
        config:
          distribution: uniform
          mode: fan_avg
          scale: 1.0
          seed: null
      kernel_regularizer: null
      name: dense_1
      trainable: true
      units: 1024
      use_bias: true
  - class_name: Activation
    config:
      activation: relu
      dtype: float32
      name: activation_8
      trainable: true
  - class_name: Dense
    config:
      activation: softmax
      activity_regularizer: null
      bias_constraint: null
      bias_initializer:
        class_name: Zeros
        config: {}
      bias_regularizer: null
      dtype: float32
      kernel_constraint: null
      kernel_initializer:
        class_name: VarianceScaling
        config:
          distribution: uniform
          mode: fan_avg
          scale: 1.0
          seed: null
      kernel_regularizer: null
      name: dense_2
      trainable: true
      units: 361
      use_bias: true
  name: sequential_1
keras_version: 2.3.0
